onnx-tracer/models/spending_classifier/network.onnx (onnx, 2115 bytes, 4 tensors)

fc1.weight f4 [16, 16]
0.24835707 -0.50641555 -0.0067486125 0.17180915 0.4062629 -0.109835945 0.14806014 0.030115105
0.049825683 0.1299414 -0.48734084 0.006500946 0.10704687 0.25752383 -0.23596594 -0.39626038
-0.06913215 0.15712367 -0.52885544 -0.8815201 0.67812 0.17855628 0.13052763 1.231621
-0.25173783 0.39091143 0.3935423 0.72676706 -0.6228694 1.9263657 0.5444753 -0.05736822
0.32384428 -0.45401204 0.41127247 0.16204199 -0.03600506 0.73894703 0.0025567284 -0.09618048
-0.77533174 -0.6184754 0.5792978 -0.13232842 0.08659046 0.28544524 0.03214001 0.25249365
0.7615149 -0.70615184 -0.61042184 -0.19254114 0.50176644 -0.2591351 -0.11729357 0.15077367
0.03428149 -0.6602283 -0.41034117 1.3600845 0.1926587 0.5677828 -0.53887236 0.4328776
-0.11707669 0.7328244 0.1044318 -0.338461 0.180818 -0.4042468 -0.70768535 -0.017355885
-0.53115183 0.26097077 0.48168805 0.31283367 -0.4419287 0.4770009 -0.35765186 -0.6001482
-0.11706848 -0.11288815 -0.97983503 0.30583814 -0.32255986 -0.2508785 -0.21032266 -0.584339
0.23679622 0.14849234 0.20639047 -0.42857876 0.07686255 0.32569563 0.33979887 -0.16725062
0.7896064 0.0337641 -0.664093 0.5154998 0.1806978 0.45770106 -0.17135726 0.57141143
-0.45971212 0.12524642 0.41103008 -0.5354462 0.02910436 -0.15763462 -0.36518332 -0.23747265
0.38371736 -0.7123741 0.09843062 0.46564007 0.7690183 0.16437556 -0.40113863 0.37596652
0.7749672 0.1732241 0.9483965 0.24123621 -0.57148516 0.37948462 0.108229294 -0.32666463
-0.23473719 -0.27219138 0.36923328 -0.41960877 -0.01791302 -0.2648801 -0.08064286 0.39551598
-0.39162666 -0.34001237 -0.12269406 -0.111731395 0.17889369 -0.38641262 0.02278592 0.88272715
0.27128002 0.055461295 0.08568414 -0.1546062 0.7823218 0.25663373 0.20202543 -0.45469373
-0.16103075 0.11612685 -0.37686807 0.35700026 0.28039226 -0.118409306 -0.32580018 0.20249085
-0.23170884 -0.5754968 -0.057824142 0.16563171 -1.3098725 0.048538774 0.94309294 0.7013972
0.4067586 0.14653623 -0.44475722 0.23661882 0.5415256 -0.24268177 1.071972 -0.63044196
-0.23286487 0.18784901 -0.15055184 0.48777255 0.41095126 0.4843225 0.08728891 -0.7009255
-0.61543214 -0.3571757 -0.40790513 -0.036414456 0.526901 0.04093707 0.3169595 0.45893097
0.120981134 -0.30031934 -0.739261 -0.23958711 0.043523535 -0.35102654 0.1287752 0.29342854
0.11372997 0.93288726 -0.038550854 -0.42339686 -0.68883467 1.1573293 -1.0125713 1.0610781
-0.9566401 -0.14584687 -0.3599221 -0.09282949 -0.14950368 -0.16383107 -0.03722296 1.0952278
0.65357137 0.23691647 0.17057599 -0.75742364 -0.4689125 -0.9336326 0.093227156 0.5162326
-0.86245894 -0.3008533 -0.23031938 -0.55316746 0.04588039 -0.19605407 -0.95938563 -0.49526817
-0.80374163 -0.59565175 0.1383454 -0.22325748 0.25751764 0.34313008 -0.33089322 -0.759685
-0.28114375 0.9261391 0.5285611 -0.5981033 -0.9937844 -0.73175746 -0.013256937 -0.28314885
0.09231693 0.3282768 0.41359162 0.4281994 0.25689298 -0.8063579 0.42621666 -0.24211703
00000000: 5151 7e3e 73a4 01bf 7723 ddbb bdee 2f3e
00000010: b101 d03e abf1 e0bd 149d 173e f4b3 f63c
00000020: 0416 4c3d 5c0f 053e bd84 f9be e305 d53b
00000030: 643b db3d 2ada 833e 0ea1 71be a4e2 cabe
00000040: 2895 8dbd 07e5 203e 1263 07bf 4dab 61bf
00000050: 4699 2d3f 75d7 363e 09a9 053e c2a5 9d3f
00000060: c8e3 80be 8b25 c83e 607e c93e 680d 3a3f
00000070: 5e74 1fbf 2793 f63f bc62 0b3f f0fa 6abd
00000080: ebce a53e 4474 e8be 4e92 d23e 56ee 253e
00000090: 0b7a 13bd a22b 3d3f c98e 273b 46fa c4bd
000000a0: 247c 46bf 6754 1ebf dc4c 143f 1a81 07be
000000b0: 5756 b13d e125 923e 3ea5 033d d946 813e
000000c0: a4f2 423f 5ec6 34bf 9b44 1cbf 8129 45be
000000d0: c473 003f 5bad 84be 9c37 f0bd 6a64 1a3e
000000e0: bf6a 0c3d b904 29bf 3d18 d2be 4017 ae3f
000000f0: 5248 453e 375a 113f 8af3 09bf 22a2 dd3e
00000100: e7c5 efbd 619a 3b3f 57e0 d53d c34a adbe
00000110: 5b28 393e 70f9 cebe de2a 35bf ee2d 8ebc
00000120: 91f9 07bf f69d 853e d19f f63e bc2b a03e
00000130: 7b44 e2be 7639 f43e 251e b7be 50a3 19bf
00000140: 99c1 efbd e731 e7bd 78d6 7abf d196 9c3e
00000150: 9126 a5be 2673 80be d35e 57be 3e97 15bf
00000160: b57a 723e 600e 183e 0658 533e ad6e dbbe
00000170: 1d6a 9d3d 94c1 a63e 1efa ad3e bf43 2bbe
00000180: a523 4a3f 3a4c 0a3d 0002 2abf cbf7 033f
00000190: d808 393e cb57 ea3e 4778 2fbe 0548 123f
000001a0: 635f ebbe 9940 003e 8972 d23e 0113 09bf
000001b0: 446c ee3c f86a 21be 4ff9 babe 082c 73be
000001c0: 9a76 c43e 265e 36bf fe95 c93d 6068 ee3e
000001d0: 62de 443f 1152 283e 0b62 cdbe af7e c03e
000001e0: 4064 463f a961 313e 1dca 723f a006 773e
000001f0: da4c 12bf cf4b c23e 52a7 dd3d 9640 a7be
00000200: f25e 70be ab5c 8bbe 250c bd3e f6d6 d6be
00000210: 53be 92bc 5d9e 87be 1528 a5bd 1281 ca3e
00000220: 4a83 c8be 1a16 aebe 0647 fbbd 6ed3 e4bd
00000230: e82f 373e e0d7 c5be 8aa9 ba3c 68fa 613f
00000240: 37e5 8a3e 622b 633d 2b7b af3d 1651 1ebe
00000250: 3e46 483f 7f65 833e c1df 4e3e 9ecd e8be
00000260: 3fe5 24be ead3 ed3d daf4 c0be bdc8 b63e
00000270: 938f 8f3e 9480 f2bd 48cf a6be c359 4f3e
00000280: 1545 6dbe c253 13bf 02d9 6cbd 5c9b 293e
00000290: e7a9 a7bf 98d0 463d 8a6e 713f c48e 333f
000002a0: aa42 d03e 980d 163e 38b7 e3be 344c 723e
000002b0: 6ca1 0a3f 9281 78be 6136 893f a564 21bf
000002c0: 2174 6ebe 7e5b 403e 432a 1abe 53bd f93e
000002d0: 3468 d23e 1ef9 f73e 87c4 b23d db6f 33bf
000002e0: f68c 1dbf bcdf b6be f1d8 d0be 5327 15bd
000002f0: fce2 063f a1ad 273d 8448 a23e 00f9 ea3e
00000300: f5c4 f73d 75c3 99be 3540 3dbf 5356 75be
00000310: bc45 323d c0b9 b3be a5dd 033e 443c 963e
00000320: 42eb e83d b3d1 6e3f 80e7 1dbd 79c7 d8be
00000330: 7857 30bf 5e23 943f f09b 81bf 68d1 873f
00000340: 5ee6 74bf e258 15be b647 b8be 631d bebd
00000350: 7e17 19be 55c3 27be 1a77 18bd 6d30 8c3f
00000360: 7450 273f 3b9a 723e 79ab 2e3e 84e6 41bf
00000370: 4d15 f0be 8c02 6fbf e1ed be3d d227 043f
00000380: 1cca 5cbf 7209 9abe d8d8 6bbe 629c 0dbf
00000390: 13ed 3b3d 66c2 48be 4c9a 75bf ca93 fdbe
000003a0: 03c2 4dbf a27c 18bf 6baa 0d3e 9c9d 64be
000003b0: 5ad9 833e bfae af3e d66a a9be b77a 42bf
000003c0: 13f2 8fbe 7417 6d3f c84f 073f 4c1d 19bf
000003d0: a868 7ebf 7554 3bbf a033 59bc e3f8 90be
000003e0: a910 bd3d e613 a83e 48c2 d33e f43c db3e
000003f0: 7a87 833e 796d 4ebf 1239 da3e 87ed 77be

fc1.bias f4 [16]
0.12669112 -0.07076695 0.044381943 0.07746341 -0.09269305 -0.0059525357 -0.32412675 -0.10243876
-0.025256816 -0.12477832 0.16324113 -0.14301413 -0.04400445 0.013074058 0.14412734 -0.14358622
00000000: 51bb 013e 43ee 90bd d7c9 353d 23a5 9e3d
00000010: dbd5 bdbd 7d0d c3bb f1f3 a5be 6acb d1bd
00000020: 62e7 cebc c78b ffbd af28 273e 4c72 12be
00000030: 033e 34bd 9334 563c 1e96 133e 4408 13be

fc2.weight f4 [16, 8]
2.1163163 0.028099189 -0.0020901596 0.009699597 -0.08254972 0.085765965 0.00976761 -0.07591327
1.5010233 -0.062269952 0.011732738 0.059515703 -0.032138582 -0.015993854 -0.07730098 0.015039379
0.90184915 -0.020812226 0.12776649 -0.08182207 0.041293144 -0.0019016209 0.0024510175 0.0341756
0.04621035 1.9506999 -0.05915714 0.20923872 -0.05637246 -0.10025294 0.04979983 0.1876171
0.01990597 1.4410635 0.05470974 -0.10060173 -0.08222204 -0.0018513136 0.14511436 0.095042385
-0.060021687 1.0849602 -0.020219265 -0.121418856 0.024368722 -0.028865865 0.09592708 -0.057690363
0.006980208 0.03570155 1.9782319 0.11581109 0.024496658 0.03227186 0.21531825 -0.08984147
-0.03853136 -0.06929096 1.6098777 0.07916627 -0.050694317 -0.082723096 -0.07673476 0.04919192
0.011351734 0.08995999 1.0825416 0.062411983 -0.047103833 0.051934656 0.08723207 -0.13202332
0.066213064 0.030729953 0.08135097 2.0628345 0.023204995 0.1532739 0.0183342 0.18314588
0.15860169 0.081286214 0.13054788 1.4987754 -0.14480844 -0.010876015 0.2189803 0.11794402
-0.123781554 0.06296288 0.0021003843 0.91027457 -0.14074638 0.040171172 -0.08082983 -0.04691757
0.21330333 -0.0828995 0.0681953 0.0075804563 1.9281555 0.0690144 -0.083972186 -0.17131345
-0.19520877 -0.056018103 -0.031026676 -0.067716174 1.4786553 -0.040122047 -0.059939265 0.13538724
-0.015178509 0.07472936 0.032416638 0.09751197 1.0310907 0.02240925 -0.21238957 -0.011453985
0.05883172 0.06103703 -0.013014306 -0.014705739 0.14753562 0.0012592401 -0.052575506 0.12378164
00000000: ba71 0740 4530 e63c 0ffb 08bb 0feb 1e3c
00000010: d40f a9bd 11a6 af3d 5308 203c 6b78 9bbd
00000020: 8821 c03f c70e 7fbd ac3a 403c bdc6 733d
00000030: bfa3 03bd 8b05 83bc fa4f 9ebd ba67 763c
00000040: 96df 663f 677e aabc 38d5 023e 5492 a7bd
00000050: 0023 293d cf3f f9ba 40a1 203b b7fb 0b3d
00000060: 1047 3d3d 89b0 f93f c24e 72bd ad42 563e
00000070: cfe6 66bd 6a51 cdbd e8fa 4b3d b21e 403e
00000080: d811 a33c c574 b83f 5217 603d 4808 cebd
00000090: 0764 a8bd c7a7 f2ba dc98 143e 95a5 c23d
000000a0: 4dd9 75bd fadf 8a3f dfa2 a5bc 73aa f8bd
000000b0: eaa0 c73c 1b78 ecbc 6b75 c43d bb4c 6cbd
000000c0: 3bba e43b ca3b 123d b436 fd3f 5d2e ed3d
000000d0: 37ad c83c 7f2f 043d 637c 5c3e cefe b7bd
000000e0: 0fd3 1dbd 6be8 8dbd 7910 ce3f ed21 a23d
000000f0: d8a4 4fbd ba6a a9bd 1d27 9dbd 777d 493d
00000100: a0fc 393c f13c b83d b990 8a3f b5a3 7f3d
00000110: f3ef 40bd 6fb9 543d baa6 b23d 1f31 07be
00000120: b79a 873d 62bd fb3c 569b a63d 7b05 0440
00000130: 6718 be3c d5f3 1c3e 9b31 963c 988a 3b3e
00000140: 7b68 223e 6379 a63d 58ae 053e dfd7 bf3f
00000150: aa48 14be 5031 32bc 5f3c 603e a28c f13d
00000160: 2f81 fdbd aff2 803d 9aa6 093b c107 693f
00000170: d21f 10be 878a 243d 1c8a a5bd a32c 40bd
00000180: 306c 5a3e 37c7 a9bd faa9 8b3d 7a65 f83b
00000190: cdcd f63f 6c57 8d3d 9cf9 abbd cb6c 2fbe
000001a0: cfe4 47be 3d73 65bd a82b febc c7ae 8abd
000001b0: 9444 bd3f 0457 24bd e082 75bd f4a2 0a3e
000001c0: 48af 78bc b50b 993d 4fc7 043d 5bb4 c73d
000001d0: c8fa 833f 9a93 b73c a77c 59be 7fa9 3bbc
000001e0: 88f9 703d f701 7a3d f539 55bc 57f0 70bc
000001f0: 9413 173e 160d a53a 6a59 57bd 3a81 fd3d

fc2.bias f4 [8]
-0.15944277 -0.059937503 0.00052436994 0.0046980595 -0.045006547 0.062284995 -0.106762044 -0.014237948
00000000: f744 23be 0781 75bd df75 093a 2ef2 993b
00000010: c958 38bd 8d1e 7f3d 0fa6 dabd 4846 69bc
