onnx-tracer/models/mediapipe_text_classifier/network_mlp_v5.onnx (onnx, 2079 bytes, 4 tensors)

fc1.weight f4 [16, 16]
-4.6786923 0.07329489 -0.37435862 0.12631088 5.3506103 4.8902187 -0.08513552 -0.68997407
-0.033993725 3.6299303 -0.277846 5.408599 0.39153588 4.7106338 -3.857443 0.23584805
-0.5906722 -0.1958031 -0.23865627 0.39633408 0.20024455 0.72080916 -0.1664077 -0.02426164
0.14751604 0.19902298 0.23629697 0.44559038 0.39362434 0.6238363 -0.66399246 0.07408545
0.4903789 0.3378207 0.11958602 -0.0270909 0.34720308 0.21424097 0.3662487 0.32906407
-0.35066098 0.14338902 0.28133303 -0.07901446 0.33740237 0.2360415 0.3384497 -0.058496427
0.6237804 -0.26297933 -0.1239644 -0.41024977 0.29392433 0.32378924 0.2945195 0.058777537
0.017205484 -0.2938101 -0.39960688 0.25732064 0.29569235 0.471615 0.16530612 0.039687306
0.44743118 0.12906274 0.020614248 0.12704523 -0.7041612 -0.6772096 0.18611576 -0.24645835
0.20647764 -0.3708354 -0.19604093 -0.8550206 -0.2887016 -0.85787386 0.39078593 0.21736725
-0.66019434 0.061435647 -0.16590568 -0.24358436 -0.27399665 -0.31112275 0.386628 -0.05663855
-0.09732121 -0.058311295 -0.24880531 0.22405134 -0.44150603 -0.2882354 -0.18386833 -0.1330085
-5.163412 0.19383024 0.23006038 0.17499118 5.543956 4.7054553 -0.030601168 -1.2953619
0.119638234 4.5523977 -0.15822074 5.460615 -0.36604446 4.7734733 -4.7880774 -0.03594069
4.8344784 0.18288374 -0.22492461 -0.349741 -4.0796976 -4.550887 0.4198815 1.1265781
0.12564136 -3.9901597 -0.29854223 -4.324588 -0.0036001275 -4.504084 5.263522 -0.30020532
3.316664 -0.38092545 -0.04079927 0.04738664 -1.368315 -2.1169393 0.016972335 1.2410467
0.39918676 -2.334825 -0.13445047 -1.8534598 -0.21364371 -1.8018994 2.976947 0.29380688
0.45138708 -0.38065657 -0.056687094 -0.07519816 -0.9772148 -0.7807313 0.37857237 0.603527
-0.33388618 -0.73629344 0.3379773 -0.22364731 -0.22973889 -0.8964864 0.87385464 -0.04412147
1.3728243 0.2951422 -0.043398328 0.112553015 -1.3616893 -1.2310635 -0.33705154 0.6111958
0.17512444 -0.6231137 -0.15888269 -1.2265427 -0.037177525 -1.5500605 1.3594663 0.2681135
3.6824 -0.08647758 0.24364431 -0.21087193 -2.850171 -2.7183197 -0.2723889 1.0269424
0.29622427 -2.8435938 -0.26384243 -2.4116185 0.27668115 -2.5894284 3.6509604 0.17315713
0.64835626 -0.18904081 -0.30526975 -0.07669986 -0.5366075 -0.8470412 0.40385622 0.00019336911
-0.3777793 -0.6862164 -0.1585636 -1.1214731 0.12832394 -0.5978087 0.8378047 0.21973006
0.28112715 -0.4314503 0.26854783 -0.25893572 0.18828721 0.16899428 -0.38112068 -0.04041779
-0.01503029 -0.21753691 0.29843846 0.29877278 -0.08321374 0.0137374075 0.28308412 -0.2507258
-1.7005887 -0.0028815037 0.05263754 -0.13880302 1.1458853 1.4744608 -0.27464744 -0.5266187
-0.21260476 1.1016259 0.018395817 1.4767029 0.18548487 1.5548853 -1.5217001 -0.21905223
0.09407534 -0.17080903 -0.17284259 0.24073546 0.44128007 0.51224864 -0.024301976 0.123786874
-0.08931252 0.2714279 0.33129063 0.7385909 -0.40950024 0.27825022 0.14819443 -0.33151355
00000000: d9b7 95c0 a21b 963d efab bfbe a457 013e
00000010: 3338 ab40 ac7c 9c40 885b aebd 24a2 30bf
00000020: 013d 0bbd c750 6840 d541 8ebe 3e13 ad40
00000030: 6477 c83e 83bd 9640 59e0 76c0 2782 713e
00000040: 4b36 17bf 9c80 48be 4f62 74be 4dec ca3e
00000050: e80c 4d3e f386 383f c866 2abe 59c0 c6bc
00000060: 720e 173e aecc 4b3e d5f7 713e 6c24 e43e
00000070: 2189 c93e bcb3 1f3f 69fb 29bf 1dba 973d
00000080: f112 fb3e d6f6 ac3e 84e9 f43d bced ddbc
00000090: 9ac4 b13e fc61 5b3e f384 bb3e 167b a83e
000000a0: d689 b3be 92d4 123e e20a 903e 55d2 a1bd
000000b0: 01c0 ac3e ddb4 713e 4749 ad3e f399 6fbd
000000c0: 13b0 1f3f 3aa5 86be 0ce1 fdbd 420c d2be
000000d0: 407d 963e b4c7 a53e 43cb 963e b7c0 703d
000000e0: 84f2 8c3c 476e 96be 4699 ccbe 88bf 833e
000000f0: fd64 973e 8577 f13e 0246 293e 288f 223d
00000100: b315 e53e 0629 043e 36df a83c 2518 023e
00000110: e943 34bf 9c5d 2dbf 2195 3e3e 945f 7cbe
00000120: e06e 533e 23de bdbe f4be 48be a1e2 5abf
00000130: b2d0 93be 9f9d 5bbf 1815 c83e 8595 5e3e
00000140: 7f02 29bf f2a3 7b3d 2ee3 29be 2e6e 79be
00000150: 4a49 8cbe 7b4b 9fbe 1bf4 c53e d3fd 67bd
00000160: 5850 c7bd d3d7 6ebd d2c6 7ebe b76d 653e
00000170: 140d e2be 9793 93be fb47 3cbe 6133 08be
00000180: ac3a a5c0 6f7b 463e f394 6b3e e330 333e
00000190: 1668 b140 1793 9640 4daf fabc 6bce a5bf
000001a0: e404 f53d 3ead 9140 9e04 22be 5cbd ae40
000001b0: 2e6a bbbe 4bc0 9840 ee37 99c0 8c36 13bd
000001c0: 0cb4 9a40 e045 3b3e a352 66be 4111 b3be
000001d0: e28c 82c0 dea0 91c0 b5fa d63e b633 903f
000001e0: 21a8 003e c75e 7fc0 87da 98be 0663 8ac0
000001f0: 1ef0 6bbb 7521 90c0 c66e a840 83b4 99be
00000200: 3944 5440 a908 c3be 231d 27bd 7e18 423d
00000210: f224 afbf ef7b 07c0 9109 8b3c 9eda 9e3f
00000220: 3562 cc3e c66d 15c0 62ad 09be 2c3e edbf
00000230: 6bc5 5abe a4a4 e6bf 4d86 3e40 db6d 963e
00000240: 351c e73e 6be5 c2be ba30 68bd 7e01 9abd
00000250: c02a 7abf 02de 47bf 3dd4 c13e bf80 1a3f
00000260: 21f3 aabe ba7d 3cbf 5c0b ad3e cd03 65be
00000270: ac40 6bbe 2280 65bf f0b4 5f3f b7b8 34bd
00000280: b5b8 af3f e11c 973e 72c2 31bd 3282 e63d
00000290: d64b aebf 7d93 9dbf 0592 acbe 5477 1c3f
000002a0: d253 333e 6184 1fbf 25b2 22be 5aff 9cbf
000002b0: 7647 18bd 6268 c6bf fe02 ae3f 2c46 893e
000002c0: 71ac 6b40 281b b1bd e57d 793e d0ee 57be
000002d0: 3469 36c0 f3f8 2dc0 8f76 8bbe d972 833f
000002e0: b5aa 973e 71fd 35c0 5b16 87be f557 1ac0
000002f0: 27a9 8d3e 32b9 25c0 56a9 6940 1a50 313e
00000300: adfa 253f ea93 41be 514c 9cbe d114 9dbd
00000310: 1c5f 09bf b1d7 58bf 3ec6 ce3e 20c3 4a39
00000320: 4a6c c1be e1ab 2fbf 7f5e 22be 6e8c 8fbf
00000330: 5a67 033e fe09 19bf 5e7a 563f eb00 613e
00000340: e6ef 8f3e 0ee7 dcbe 1a7f 893e 3993 84be
00000350: 5dce 403e d60c 2d3e 4022 c3be 208d 25bd
00000360: 9b41 76bc ffc1 5ebe edcc 983e bff8 983e
00000370: f76b aabd dd12 613c 67f0 903e 225f 80be
00000380: e4ac d9bf 9cd7 3cbb 769a 573d 6122 0ebe
00000390: 5fac 923f 22bb bc3f 979e 8cbe 7cd0 06bf
000003a0: 10b5 59be 1402 8d3f d3b2 963c 9a04 bd3f
000003b0: bfef 3d3e 7b06 c73f 12c7 c2bf 3a4f 60be
000003c0: 92aa c03d 90e8 2ebe a6fd 30be 5b83 763e
000003d0: 76ef e13e ba22 033f f014 c7bc f983 fd3d
000003e0: 7ce9 b6bd 99f8 8a3e ed9e a93e 4b14 3d3f
000003f0: 04aa d1be d076 8e3e 48c0 173e 25bc a9be

fc1.bias f4 [1, 16]
0.078478865 -0.02119518 -0.008003598 -0.030414606 -0.024037195 -0.03549739 -0.027202874 0.004609957
-0.019240113 -0.0012687824 -0.01953711 -0.07177228 -0.017927788 -0.026273713 0.0524593 -0.00440201
00000000: 87b9 a03d 84a1 adbc 8621 03bc 0d28 f9bc
00000010: a7e9 c4bc b665 11bd 90d8 debc 1f0f 973b
00000020: 719d 9dbc 464d a6ba 4a0c a0bc 58fd 92bd
00000030: 4cdd 92bc f83b d7bc 90df 563d bc3e 90bb

fc2.weight f4 [16, 8]
3.422282 -3.744219 0.0 0.0 0.0 0.0 0.0 0.0
-0.25867516 -0.39810348 0.0 0.0 0.0 0.0 0.0 0.0
0.17868394 -0.1538211 0.0 0.0 0.0 0.0 0.0 0.0
0.26134786 -0.28122303 0.0 0.0 0.0 0.0 0.0 0.0
-3.3224854 3.7100194 0.0 0.0 0.0 0.0 0.0 0.0
-3.3884156 3.4729993 0.0 0.0 0.0 0.0 0.0 0.0
-0.35100955 0.2571321 0.0 0.0 0.0 0.0 0.0 0.0
1.0284368 -1.0742164 0.0 0.0 0.0 0.0 0.0 0.0
-0.03300073 0.37081167 0.0 0.0 0.0 0.0 0.0 0.0
-2.7504363 2.936827 0.0 0.0 0.0 0.0 0.0 0.0
0.39565325 -0.103122815 0.0 0.0 0.0 0.0 0.0 0.0
-3.5939848 3.5492833 0.0 0.0 0.0 0.0 0.0 0.0
-0.4274563 0.046488784 0.0 0.0 0.0 0.0 0.0 0.0
-3.2502813 3.1834438 0.0 0.0 0.0 0.0 0.0 0.0
2.9811063 -3.1048832 0.0 0.0 0.0 0.0 0.0 0.0
-0.2027383 0.5672197 0.0 0.0 0.0 0.0 0.0 0.0
00000000: ab06 5b40 49a1 6fc0 0000 0000 0000 0000
00000010: 0000 0000 0000 0000 0000 0000 0000 0000
00000020: 1271 84be 38d4 cbbe 0000 0000 0000 0000
00000030: 0000 0000 0000 0000 0000 0000 0000 0000
00000040: ecf8 363e 4783 1dbe 0000 0000 0000 0000
00000050: 0000 0000 0000 0000 0000 0000 0000 0000
00000060: 63cf 853e 77fc 8fbe 0000 0000 0000 0000
00000070: 0000 0000 0000 0000 0000 0000 0000 0000
00000080: 9aa3 54c0 f570 6d40 0000 0000 0000 0000
00000090: 0000 0000 0000 0000 0000 0000 0000 0000
000000a0: cddb 58c0 9f45 5e40 0000 0000 0000 0000
000000b0: 0000 0000 0000 0000 0000 0000 0000 0000
000000c0: 86b7 b3be d2a6 833e 0000 0000 0000 0000
000000d0: 0000 0000 0000 0000 0000 0000 0000 0000
000000e0: d1a3 833f ec7f 89bf 0000 0000 0000 0000
000000f0: 0000 0000 0000 0000 0000 0000 0000 0000
00000100: c62b 07bd 07db bd3e 0000 0000 0000 0000
00000110: 0000 0000 0000 0000 0000 0000 0000 0000
00000120: 2607 30c0 f9f4 3b40 0000 0000 0000 0000
00000130: 0000 0000 0000 0000 0000 0000 0000 0000
00000140: 1093 ca3e 0e32 d3bd 0000 0000 0000 0000
00000150: 0000 0000 0000 0000 0000 0000 0000 0000
00000160: d903 66c0 7527 6340 0000 0000 0000 0000
00000170: 0000 0000 0000 0000 0000 0000 0000 0000
00000180: 8ddb dabe 066b 3e3d 0000 0000 0000 0000
00000190: 0000 0000 0000 0000 0000 0000 0000 0000
000001a0: 9c04 50c0 8bbd 4b40 0000 0000 0000 0000
000001b0: 0000 0000 0000 0000 0000 0000 0000 0000
000001c0: 72ca 3e40 68b6 46c0 0000 0000 0000 0000
000001d0: 0000 0000 0000 0000 0000 0000 0000 0000
000001e0: a19a 4fbe 4f35 113f 0000 0000 0000 0000
000001f0: 0000 0000 0000 0000 0000 0000 0000 0000

fc2.bias f4 [1, 8]
0.36485007 -0.3648501 0.0 0.0 0.0 0.0 0.0 0.0
00000000: a1cd ba3e a2cd babe 0000 0000 0000 0000
00000010: 0000 0000 0000 0000 0000 0000 0000 0000
