onnx-tracer/models/mediapipe_text_classifier/network_mlp.onnx (onnx, 1716 bytes, 4 tensors)

fc1.weight f4 [16, 16]
00000000: d9b7 95c0 4b36 17bf f112 fb3e 13b0 1f3f
00000010: b315 e53e 7f02 29bf ac3a a5c0 0cb4 9a40
00000020: 3944 5440 351c e73e b5b8 af3f 71ac 6b40
00000030: adfa 253f e6ef 8f3e e4ac d9bf 92aa c03d
00000040: a21b 963d 9c80 48be d6f6 ac3e 3aa5 86be
00000050: 0629 043e f2a3 7b3d 6f7b 463e e045 3b3e
00000060: a908 c3be 6be5 c2be e11c 973e 281b b1bd
00000070: ea93 41be 0ee7 dcbe 9cd7 3cbb 90e8 2ebe
00000080: efab bfbe 4f62 74be 84e9 f43d 0ce1 fdbd
00000090: 36df a83c 2ee3 29be f394 6b3e a352 66be
000000a0: 231d 27bd ba30 68bd 72c2 31bd e57d 793e
000000b0: 514c 9cbe 1a7f 893e 769a 573d a6fd 30be
000000c0: a457 013e 4dec ca3e bced ddbc 420c d2be
000000d0: 2518 023e 2e6e 79be e330 333e 4111 b3be
000000e0: 7e18 423d 7e01 9abd 3282 e63d d0ee 57be
000000f0: d114 9dbd 3993 84be 6122 0ebe 5b83 763e
00000100: 3338 ab40 e80c 4d3e 9ac4 b13e 407d 963e
00000110: e943 34bf 4a49 8cbe 1668 b140 e28c 82c0
00000120: f224 afbf c02a 7abf d64b aebf 3469 36c0
00000130: 1c5f 09bf 5dce 403e 5fac 923f 76ef e13e
00000140: ac7c 9c40 f386 383f fc61 5b3e b4c7 a53e
00000150: 9c5d 2dbf 7b4b 9fbe 1793 9640 dea0 91c0
00000160: ef7b 07c0 02de 47bf 7d93 9dbf f3f8 2dc0
00000170: b1d7 58bf d60c 2d3e 22bb bc3f ba22 033f
00000180: 885b aebd c866 2abe f384 bb3e 43cb 963e
00000190: 2195 3e3e 1bf4 c53e 4daf fabc b5fa d63e
000001a0: 9109 8b3c 3dd4 c13e 0592 acbe 8f76 8bbe
000001b0: 3ec6 ce3e 4022 c3be 979e 8cbe f014 c7bc
000001c0: 24a2 30bf 59c0 c6bc 167b a83e b7c0 703d
000001d0: 945f 7cbe d3fd 67bd 6bce a5bf b633 903f
000001e0: 9eda 9e3f bf80 1a3f 5477 1c3f d972 833f
000001f0: 20c3 4a39 208d 25bd 7cd0 06bf f983 fd3d
00000200: 013d 0bbd 720e 173e d689 b3be 84f2 8c3c
00000210: e06e 533e 5850 c7bd e404 f53d 21a8 003e
00000220: 3562 cc3e 21f3 aabe d253 333e b5aa 973e
00000230: 4a6c c1be 9b41 76bc 10b5 59be 7ce9 b6bd
00000240: c750 6840 aecc 4b3e 92d4 123e 476e 96be
00000250: 23de bdbe d3d7 6ebd 3ead 9140 c75e 7fc0
00000260: c66d 15c0 ba7d 3cbf 6184 1fbf 71fd 35c0
00000270: e1ab 2fbf ffc1 5ebe 1402 8d3f 99f8 8a3e
00000280: d541 8ebe d5f7 713e e20a 903e 4699 ccbe
00000290: f4be 48be d2c6 7ebe 9e04 22be 87da 98be
000002a0: 62ad 09be 5c0b ad3e 25b2 22be 5b16 87be
000002b0: 7f5e 22be edcc 983e d3b2 963c ed9e a93e
000002c0: 3e13 ad40 6c24 e43e 55d2 a1bd 88bf 833e
000002d0: a1e2 5abf b76d 653e 5cbd ae40 0663 8ac0
000002e0: 2c3e edbf cd03 65be 5aff 9cbf f557 1ac0
000002f0: 6e8c 8fbf bff8 983e 9a04 bd3f 4b14 3d3f
00000300: 6477 c83e 2189 c93e 01c0 ac3e fd64 973e
00000310: b2d0 93be 140d e2be 2e6a bbbe 1ef0 6bbb
00000320: 6bc5 5abe ac40 6bbe 7647 18bd 27a9 8d3e
00000330: 5a67 033e f76b aabd bfef 3d3e 04aa d1be
00000340: 83bd 9640 bcb3 1f3f ddb4 713e 8577 f13e
00000350: 9f9d 5bbf 9793 93be 4bc0 9840 7521 90c0
00000360: a4a4 e6bf 2280 65bf 6268 c6bf 32b9 25c0
00000370: fe09 19bf dd12 613c 7b06 c73f d076 8e3e
00000380: 59e0 76c0 69fb 29bf 4749 ad3e 0246 293e
00000390: 1815 c83e fb47 3cbe ee37 99c0 c66e a840
000003a0: 4d86 3e40 f0b4 5f3f fe02 ae3f 56a9 6940
000003b0: 5e7a 563f 67f0 903e 12c7 c2bf 48c0 173e
000003c0: 2782 713e 1dba 973d f399 6fbd 288f 223d
000003d0: 8595 5e3e 6133 08be 8c36 13bd 83b4 99be
000003e0: db6d 963e b7b8 34bd 2c46 893e 1a50 313e
000003f0: eb00 613e 225f 80be 3a4f 60be 25bc a9be
-4.6786923 -0.5906722 0.4903789 0.6237804 0.44743118 -0.66019434 -5.163412 4.8344784
3.316664 0.45138708 1.3728243 3.6824 0.64835626 0.28112715 -1.7005887 0.09407534
0.07329489 -0.1958031 0.3378207 -0.26297933 0.12906274 0.061435647 0.19383024 0.18288374
-0.38092545 -0.38065657 0.2951422 -0.08647758 -0.18904081 -0.4314503 -0.0028815037 -0.17080903
-0.37435862 -0.23865627 0.11958602 -0.1239644 0.020614248 -0.16590568 0.23006038 -0.22492461
-0.04079927 -0.056687094 -0.043398328 0.24364431 -0.30526975 0.26854783 0.05263754 -0.17284259
0.12631088 0.39633408 -0.0270909 -0.41024977 0.12704523 -0.24358436 0.17499118 -0.349741
0.04738664 -0.07519816 0.112553015 -0.21087193 -0.07669986 -0.25893572 -0.13880302 0.24073546
5.3506103 0.20024455 0.34720308 0.29392433 -0.7041612 -0.27399665 5.543956 -4.0796976
-1.368315 -0.9772148 -1.3616893 -2.850171 -0.5366075 0.18828721 1.1458853 0.44128007
4.8902187 0.72080916 0.21424097 0.32378924 -0.6772096 -0.31112275 4.7054553 -4.550887
-2.1169393 -0.7807313 -1.2310635 -2.7183197 -0.8470412 0.16899428 1.4744608 0.51224864
-0.08513552 -0.1664077 0.3662487 0.2945195 0.18611576 0.386628 -0.030601168 0.4198815
0.016972335 0.37857237 -0.33705154 -0.2723889 0.40385622 -0.38112068 -0.27464744 -0.024301976
-0.68997407 -0.02426164 0.32906407 0.058777537 -0.24645835 -0.05663855 -1.2953619 1.1265781
1.2410467 0.603527 0.6111958 1.0269424 0.00019336911 -0.04041779 -0.5266187 0.123786874
-0.033993725 0.14751604 -0.35066098 0.017205484 0.20647764 -0.09732121 0.119638234 0.12564136
0.39918676 -0.33388618 0.17512444 0.29622427 -0.3777793 -0.01503029 -0.21260476 -0.08931252
3.6299303 0.19902298 0.14338902 -0.2938101 -0.3708354 -0.058311295 4.5523977 -3.9901597
-2.334825 -0.73629344 -0.6231137 -2.8435938 -0.6862164 -0.21753691 1.1016259 0.2714279
-0.277846 0.23629697 0.28133303 -0.39960688 -0.19604093 -0.24880531 -0.15822074 -0.29854223
-0.13445047 0.3379773 -0.15888269 -0.26384243 -0.1585636 0.29843846 0.018395817 0.33129063
5.408599 0.44559038 -0.07901446 0.25732064 -0.8550206 0.22405134 5.460615 -4.324588
-1.8534598 -0.22364731 -1.2265427 -2.4116185 -1.1214731 0.29877278 1.4767029 0.7385909
0.39153588 0.39362434 0.33740237 0.29569235 -0.2887016 -0.44150603 -0.36604446 -0.0036001275
-0.21364371 -0.22973889 -0.037177525 0.27668115 0.12832394 -0.08321374 0.18548487 -0.40950024
4.7106338 0.6238363 0.2360415 0.471615 -0.85787386 -0.2882354 4.7734733 -4.504084
-1.8018994 -0.8964864 -1.5500605 -2.5894284 -0.5978087 0.0137374075 1.5548853 0.27825022
-3.857443 -0.66399246 0.3384497 0.16530612 0.39078593 -0.18386833 -4.7880774 5.263522
2.976947 0.87385464 1.3594663 3.6509604 0.8378047 0.28308412 -1.5217001 0.14819443
0.23584805 0.07408545 -0.058496427 0.039687306 0.21736725 -0.1330085 -0.03594069 -0.30020532
0.29380688 -0.04412147 0.2681135 0.17315713 0.21973006 -0.2507258 -0.21905223 -0.33151355

fc1.bias f4 [16]
00000000: 87b9 a03d 84a1 adbc 8621 03bc 0d28 f9bc
00000010: a7e9 c4bc b665 11bd 90d8 debc 1f0f 973b
00000020: 719d 9dbc 464d a6ba 4a0c a0bc 58fd 92bd
00000030: 4cdd 92bc f83b d7bc 90df 563d bc3e 90bb
0.078478865 -0.02119518 -0.008003598 -0.030414606 -0.024037195 -0.03549739 -0.027202874 0.004609957
-0.019240113 -0.0012687824 -0.01953711 -0.07177228 -0.017927788 -0.026273713 0.0524593 -0.00440201

fc2.weight f4 [2, 16]
00000000: ab06 5b40 1271 84be ecf8 363e 63cf 853e
00000010: 9aa3 54c0 cddb 58c0 86b7 b3be d1a3 833f
00000020: c62b 07bd 2607 30c0 1093 ca3e d903 66c0
00000030: 8ddb dabe 9c04 50c0 72ca 3e40 a19a 4fbe
00000040: 49a1 6fc0 38d4 cbbe 4783 1dbe 77fc 8fbe
00000050: f570 6d40 9f45 5e40 d2a6 833e ec7f 89bf
00000060: 07db bd3e f9f4 3b40 0e32 d3bd 7527 6340
00000070: 066b 3e3d 8bbd 4b40 68b6 46c0 4f35 113f
3.422282 -0.25867516 0.17868394 0.26134786 -3.3224854 -3.3884156 -0.35100955 1.0284368
-0.03300073 -2.7504363 0.39565325 -3.5939848 -0.4274563 -3.2502813 2.9811063 -0.2027383
-3.744219 -0.39810348 -0.1538211 -0.28122303 3.7100194 3.4729993 0.2571321 -1.0742164
0.37081167 2.936827 -0.103122815 3.5492833 0.046488784 3.1834438 -3.1048832 0.5672197

fc2.bias f4 [2]
00000000: a1cd ba3e a2cd babe
0.36485007 -0.3648501
